last_brain.pth (torch_old, 5158 bytes, 12 tensors)

fc1.weight f4 [30, 5]
000000 99 23 38 bd 26 e4 81 be 4f 11 82 3e 07 e9 09 bf
       -0.044955824 -0.25369376 0.2540383 -0.53871197
000010 1d 7e a7 be e2 a7 1d 3d 1e 92 08 3f 70 e4 07 3e
       -0.32713404 0.038490184 0.5334796 0.13270736
000020 db 29 50 3f 6d 9d 12 bf 7c 4c 6d be 57 d4 d0 3e
       0.81313866 -0.5727146 -0.23173708 0.40787002
000030 1d f4 1d bf 58 66 b2 3d 5b bb 22 be 39 c5 01 bf
       -0.6170061 0.08710927 -0.15891783 -0.5069156
000040 51 32 03 bf 0f 08 fc 3e aa 22 20 be 8e 4b 67 be
       -0.5124865 0.49224898 -0.15638223 -0.22587416
000050 aa ad 48 be 92 c3 2a 3f 28 13 02 3f a3 c6 18 3f
       -0.19597498 0.66704667 0.5081048 0.59678096
000060 2c 00 a3 be df 34 20 be c4 dd 11 bf 8a 46 29 3e
       -0.3183607 -0.15645169 -0.5697901 0.16530815
000070 c9 c6 ca bd 0f f4 1d 3f f1 b4 87 3e d3 41 0a 3d
       -0.099011965 0.6170053 0.26505235 0.03375418
000080 94 12 b3 bd 72 f6 2b bf 1d 28 1b 3f 2c dd e4 3e
       -0.08743778 -0.6717292 0.60608083 0.4469999
000090 9d ea a9 bc e4 ad b9 3e a5 8e 56 3e 85 93 62 3e
       -0.020741755 0.3626548 0.20952852 0.22126587
0000a0 6e d4 6b 3e 68 cc c0 be f4 15 26 be 42 c6 43 be
       0.23030254 -0.3765595 -0.16219312 -0.19118598
0000b0 04 86 90 be a9 3a fb 3e 5b be e9 be 9d 3a 88 3e
       -0.28227246 0.49068192 -0.45653042 0.26607218
0000c0 13 f4 48 3d 47 05 03 bf e5 bb 2e be 36 4c c1 bd
       0.049060892 -0.5117993 -0.17063864 -0.09438364
0000d0 88 68 0f 3e 02 3f ae 3e d3 f9 23 be 60 0a c4 3d
       0.1400472 0.34032446 -0.16013269 0.095722914
0000e0 19 14 4f be 7b 21 54 be a4 47 6b 3e b8 bc 13 3e
       -0.2022251 -0.20715897 0.22976547 0.14427459
0000f0 46 7d 90 be cb 5c 7d be 99 57 2f 3e 8f bd 54 3d
       -0.28220576 -0.24742429 0.1712326 0.05193859
000100 1a 63 86 3e 3a 0e f9 3e 76 d2 10 3e 50 bf a6 3c
       0.26247483 0.48643667 0.14142784 0.020354897
000110 01 8d 53 be 1e 4d 9a 3e f0 af 23 be f0 6f 97 bd
       -0.20659257 0.3013696 -0.15985084 -0.07394397
000120 80 dc b9 3b 40 c7 6d 3d b8 0d 81 3e 39 52 ad bd
       0.0056720376 0.058051348 0.2520578 -0.08462948
000130 50 de a4 3e e4 d4 37 be bc 41 0c 3f d8 c1 25 bf
       0.3220086 -0.17952305 0.547878 -0.6474891
000140 44 8f b9 3e b7 e8 d2 3e af 2b 0b be d4 da 56 be
       0.36242115 0.41193172 -0.13590883 -0.20981914
000150 4a be c2 be 0f ca 2a 3d 8b 4b 01 3f 77 56 59 bd
       -0.38035804 0.041696604 0.50505894 -0.053060975
000160 8a fa 0a bf c3 d5 f5 3e 36 77 3e 3e d7 d0 85 3e
       -0.5428854 0.4801465 0.18600163 0.26135895
000170 ba 23 37 bd b9 bf 06 bf 53 d8 fd 3e ed 3c 56 3e
       -0.044711806 -0.52636296 0.49579105 0.20921679
000180 0e aa 65 bd 6a e9 3e 3f 1e 3c c4 3e 7e 24 f6 be
       -0.05607038 0.7457491 0.38327116 -0.48074716
000190 93 17 a3 3e 5c 07 bc be c1 80 e0 be b5 fe 92 be
       0.31853923 -0.36724365 -0.4384823 -0.2870995
0001a0 69 42 8c 3e 83 59 12 3f 1f f2 29 3f 90 60 1a 3f
       0.27394417 0.57167834 0.6638507 0.6030359
0001b0 6f e0 17 3f 3b 34 cd be 18 70 dd be 2d b1 0d be
       0.59326833 -0.4007891 -0.43249583 -0.13837118
0001c0 0c ae 01 3f 0a 8f cc be da 9b bc be ca 72 fe be
       0.506562 -0.3995288 -0.36837655 -0.49696952
0001d0 47 3a 07 3f 64 b4 bc be 07 f1 49 be 15 94 20 3e
       0.528233 -0.36856377 -0.19720851 0.15681489
0001e0 41 0c 09 bf 0b 2b 31 3d a7 23 12 3f 33 3f af be
       -0.5353432 0.04325394 0.5708565 -0.34227905
0001f0 5a d4 7a be 24 0b a7 3e 20 fd d4 bd 77 da fa 3e
       -0.24495068 0.32625687 -0.10399842 0.489948
000200 37 83 11 3f 77 9a f9 3b 7e e2 60 3e df 30 50 3d
       0.5684084 0.0076172906 0.219614 0.050827857
000210 0d f0 c0 be 68 14 fd bd 9d 52 2e bc 59 d8 68 bd
       -0.37683144 -0.12357408 -0.010639814 -0.05684695
000220 ea 07 9e bb c0 97 37 be 57 b0 92 be 2c 64 6b be
       -0.004822721 -0.17928982 -0.28650162 -0.22987431
000230 89 a5 44 be e2 7c 12 3e 07 13 9e 3e b9 a8 39 bf
       -0.19203772 0.14305452 0.30873892 -0.72523075
000240 f5 05 35 3f f5 ed c6 be 71 41 af bd 6f b6 c0 be
       0.70712215 -0.38853422 -0.08557404 -0.37639186
000250 ce 36 c0 bd 6c cc bf be
       -0.09385453 -0.3746065

fc1.bias f4 [30]
000000 b8 4f 74 3e 72 c3 0e be 29 7d 3c 3e c2 f2 b0 3e
       0.23858535 -0.13941744 0.1840712 0.3456021
000010 22 33 5e be a9 3e 0b be 5e cf ff 3d c4 ac 9e 3d
       -0.21699193 -0.13598122 0.12490724 0.07747796
000020 38 d9 38 be e5 f5 e8 3d ac d9 d3 be 7b 71 ce be
       -0.18051612 0.11375026 -0.41377008 -0.40320954
000030 31 88 05 3f e4 b2 80 be 3e 25 86 be cc 1c de 3e
       0.52160937 -0.25136483 -0.2620029 0.43381345
000040 c3 0b b3 3e 3c a8 7d 3d d5 14 b1 be 4b f4 76 be
       0.3496991 0.06192802 -0.34586206 -0.24116628
000050 c7 7b fb 3e bc 8f 93 3e fb dc e2 3d 65 29 8f 3e
       0.49117872 0.28820598 0.11077305 0.2796127
000060 1f 81 28 3c 2f 6a 31 be f9 bb ec be 25 24 12 3f
       0.010284691 -0.17325662 -0.46237162 0.570864
000070 2f 3b 9b be c7 fe 19 3f
       -0.3031859 0.60154384

fc2.weight f4 [3, 30]
000000 d7 8c 3e 3e 63 5a 82 be 61 54 01 3f 98 39 1d 3f
       0.18608414 -0.25459585 0.50519377 0.61416006
000010 1e 28 02 be 18 9d 67 be e9 3c cb be e3 31 2c be
       -0.12710616 -0.2261852 -0.39694908 -0.16815905
000020 02 e5 6d 3d 25 42 d7 bb 87 4f 08 3e dc 29 a4 bd
       0.058079727 -0.0065691643 0.13311587 -0.080157965
000030 0d ac 9d 3d e3 5b b3 bd d1 cb f5 bd 91 62 55 be
       0.07698832 -0.087577604 -0.120017655 -0.20838381
000040 e2 cb 8f be db d5 29 be 5c f9 86 be 7b 7f 88 be
       -0.28085238 -0.16585486 -0.2636212 -0.2665976
000050 5d 44 37 be 57 19 25 be ac be e1 3e 36 13 42 be
       -0.17897172 -0.16122948 0.44090784 -0.18952641
000060 4d ec c0 3e e5 fe cb bd c0 10 93 3d 7f 11 e1 3e
       0.37680283 -0.09960727 0.07180929 0.4395866
000070 9c 8a ab be dc f1 01 3f 90 56 08 3e 35 ca ae be
       -0.33504188 0.50759673 0.13314271 -0.34138647
000080 f8 cf 82 be cd 13 17 3f 44 57 dc be 39 e8 33 3d
       -0.25549293 0.5901459 -0.43035328 0.043922637
000090 3d a5 4e be 4a dc 08 3e c0 4d 00 3e 9c 2b dd 3e
       -0.20180221 0.13365284 0.1252966 0.43197334
0000a0 53 ca 39 3f e4 d8 28 bd 8b a1 99 3e 56 26 e8 be
       0.7257435 -0.041222468 0.3000606 -0.45341748
0000b0 6e 30 05 be 16 06 67 be c8 c7 14 be 8f a3 70 be
       -0.13006756 -0.22560915 -0.14529335 -0.23499893
0000c0 c8 ee 00 bf a8 21 7f 3d 04 18 c3 3e 84 76 63 be
       -0.5036435 0.062287956 0.3810426 -0.22213179
0000d0 6b 99 12 be 08 00 94 3d f5 3f 5a be 6b 42 7d bd
       -0.14316337 0.072265685 -0.2131346 -0.06183092
0000e0 5c cc e6 bd fa f1 a2 3e 1e e6 ca be 4c 6b 8f 3e
       -0.11269447 0.31825238 -0.3962869 0.2801155
0000f0 0f 7d 29 3d e7 19 87 be 73 b4 0c 3f 33 30 ac 3e
       0.04137903 -0.2638695 0.54962844 0.33630523
000100 0b fa 87 be 83 71 94 be db bc 4d be 8b 26 16 3c
       -0.26557955 -0.28992853 -0.20091574 0.009164463
000110 b5 09 b6 3c 80 7b be be cc 81 70 3f b0 cb f2 3c
       0.022221426 -0.37203598 0.93948054 0.029638141
000120 f7 67 0c 3e 15 04 05 bf 9c 1b 20 bd f0 71 f5 3d
       0.13711534 -0.51959354 -0.03908883 0.119846225
000130 d0 54 0b 3e 7f bb 08 3e 36 25 c3 be 16 73 0e bf
       0.13606572 0.13352774 -0.38114327 -0.5564436
000140 d2 fa 1b 3e 02 5d bc bd f5 08 d5 be c6 6f b3 3e
       0.15232399 -0.09197427 -0.41608396 0.35046214
000150 66 e5 52 bc d1 85 e3 be 9c 5b bb 3d 67 74 c7 3e
       -0.012872076 -0.4443803 0.091483325 0.38955995
000160 a2 73 07 bf 0c 1e f9 3e
       -0.52910817 0.48655736

fc2.bias f4 [3]
000000 b8 16 2b 3c 44 a0 8f 3e b3 f9 3c 3c
       0.010442428 0.2805196 0.011534142

exp_avg f4 [30, 5]
000000 c2 36 2c 38 9f e7 0e 39 e8 12 4c b7 c0 06 a2 b6
       4.1058993e-05 0.00013628461 -1.21637495e-05 -4.828762e-06
000010 c0 06 a2 36 d0 31 65 b9 8f 9a 3e b9 f4 a5 83 b9
       4.828762e-06 -0.00021857698 -0.0001817739 -0.00025109912
000020 9a b4 17 ba 9a b4 17 3a 7e 36 34 39 ee bb ed 39
       -0.00057871046 0.00057871046 0.00017186438 0.0004534418
000030 fe 92 b7 35 1c 26 e2 39 1c 26 e2 b9 e2 95 da b9
       1.3677343e-06 0.00043134473 -0.00043134473 -0.00041691872
000040 04 00 00 00 b8 4c 04 ba b1 7d 33 3a b1 7d 33 ba
       6e-45 -0.00050468324 0.00068470376 -0.00068470376
000050 04 a8 6d b9 d8 ed 23 b9 0c 21 fb b9 d6 a4 cc b9
       -0.00022664672 -0.00015633495 -0.00047899073 -0.00039032724
000060 d6 a4 cc 39 90 04 e8 b7 cc cb 0f 2e d3 7e c6 38
       0.00039032724 -2.765868e-05 3.2695444e-11 9.4649986e-05
000070 a1 a2 27 38 a1 a2 27 b8 31 87 fc b8 61 be a3 b9
       3.9967363e-05 -3.9967363e-05 -0.00012041478 -0.00031231626
000080 ab a8 59 38 a5 2c 8e 39 a5 2c 8e b9 9d c9 81 b9
       5.1893916e-05 0.00027117613 -0.00027117613 -0.0002475501
000090 22 10 3f b9 26 1a f5 b8 d6 74 ea b8 d6 74 ea 38
       -0.0001822119 -0.00011687381 -0.00011179752 0.00011179752
0000a0 04 00 00 00 00 00 00 00 04 00 00 00 04 00 00 00
       6e-45 0.0 6e-45 6e-45
0000b0 04 00 00 80 d4 ca 9d b9 06 53 d3 b8 50 97 c7 b7
       -6e-45 -0.00030096492 -0.00010076728 -2.3793109e-05
0000c0 04 15 15 b9 04 15 15 39 df c2 98 b7 b8 68 35 b2
       -0.00014217576 0.00014217576 -1.8210556e-05 -1.0559397e-08
0000d0 29 86 60 b8 64 42 66 39 64 42 66 b9 00 00 00 00
       -5.3530708e-05 0.00021959242 -0.00021959242 0.0
0000e0 00 00 00 00 00 00 00 00 00 00 00 00 00 00 00 00
       0.0 0.0 0.0 0.0
0000f0 f0 cf 19 b5 ea 1d 4a 39 28 92 a6 37 df 15 95 38
       -5.729953e-07 0.00019275365 1.9856801e-05 7.1089475e-05
000100 df 15 95 b8 9b db ef 37 9a 72 c5 b9 7a f3 8d 39
       -7.1089475e-05 2.8593282e-05 -0.00037660153 0.0002707502
000110 80 2e ea 39 80 2e ea b9 00 00 00 00 00 00 00 00
       0.00044666603 -0.00044666603 0.0 0.0
000120 00 00 00 00 00 00 00 00 00 00 00 00 ce 7e 3c b9
       0.0 0.0 0.0 -0.00017976316
000130 f0 48 cb b8 9c 1c 9a b9 b4 48 47 b9 b4 48 47 39
       -9.69338e-05 -0.00029394485 -0.00019005203 0.00019005203
000140 4a 9f 99 b9 a8 c1 a0 b9 58 29 8c b9 4a ac 9d b8
       -0.00029301114 -0.00030661863 -0.00026733684 -7.518435e-05
000150 4a ac 9d 38 4d 93 bd 37 de 2a 00 b9 b8 08 cd b7
       7.518435e-05 2.2599148e-05 -0.00012223 -2.4441964e-05
000160 d7 01 81 38 d7 01 81 b8 09 a2 15 b9 cc d1 fb b9
       6.151542e-05 -6.151542e-05 -0.0001427011 -0.00048030762
000170 7c 6c 34 b7 cf a3 19 3a cf a3 19 ba 54 16 4c b9
       -1.0754095e-05 0.0005860896 -0.0005860896 -0.00019463274
000180 7c b5 b5 b9 38 60 d4 38 5d 59 87 ba 5d 59 87 3a
       -0.00034658227 0.0001012687 -0.0010326315 0.0010326315
000190 45 d0 07 b9 0a df 59 39 a6 7d 59 38 80 9f 2b 39
       -0.0001295219 0.00020777821 5.185385e-05 0.00016367249
0001a0 80 9f 2b b9 bb e4 23 b9 48 42 9b b9 89 96 1d b9
       -0.00016367249 -0.000156301 -0.00029613287 -0.00015028765
0001b0 28 02 76 b9 28 02 76 39 2c b7 26 3a 70 a8 07 3a
       -0.00023461191 0.00023461191 0.0006359692 0.00051749405
0001c0 a5 93 cd 39 4e 80 d4 b8 4e 80 d4 38 84 50 a0 38
       0.0003921065 -0.000101328464 0.000101328464 7.644392e-05
0001d0 5c 0b 51 39 0a fc d2 38 c8 b2 5f 39 c8 b2 5f b9
       0.00019936025 0.00010060526 0.00021333538 -0.00021333538
0001e0 ff 0b 50 39 de a4 64 37 9c 4f 20 b8 90 08 85 b8
       0.00019840895 1.3628245e-05 -3.8221115e-05 -6.343529e-05
0001f0 90 08 85 38 b2 b9 c4 b8 75 97 00 b9 b8 31 4d b8
       6.343529e-05 -9.380597e-05 -0.00012263453 -4.8922113e-05
000200 e0 38 0a ba e0 38 0a 3a 04 00 00 00 04 00 00 00
       -0.0005272757 0.0005272757 6e-45 6e-45
000210 00 00 00 00 04 00 00 80 04 00 00 00 c0 65 0c 3a
       0.0 -6e-45 6e-45 0.0005355738
000220 cb 91 5b 3a 83 6f c2 39 0f 42 03 3a 0f 42 03 ba
       0.0008375912 0.00037085646 0.0005007097 -0.0005007097
000230 e4 87 67 b9 fd fd 01 ba 8e 9c 5f b8 20 da f9 39
       -0.000220805 -0.00049588067 -5.3313146e-05 0.00047655497
000240 20 da f9 b9 9a 5e fd 39 1a 97 15 3a 4a 2c a3 39
       -0.00047655497 0.00048326404 0.0005706415 0.0003112278
000250 22 48 84 3a 22 48 84 ba
       0.0010092298 -0.0010092298

exp_avg_sq f4 [30, 5]
000000 09 b9 fb 35 68 9e ee 35 2e 04 25 36 cd 9d ee 35
       1.875481e-06 1.7778484e-06 2.458935e-06 1.7778308e-06
000010 cd 9d ee 35 09 99 62 36 fa 0a 62 36 6a 77 df 35
       1.7778308e-06 3.3765702e-06 3.3683013e-06 1.6649549e-06
000020 9c 92 1e 36 9c 92 1e 36 14 a7 9e 36 9a ee b0 36
       2.3629173e-06 2.3629173e-06 4.7282174e-06 5.2729856e-06
000030 df ea 9f 35 b8 7b 7e 36 b8 7b 7e 36 78 e1 c9 36
       1.191478e-06 3.7920963e-06 3.7920963e-06 6.016515e-06
000040 e1 fc 98 36 50 56 95 37 b0 18 1b 37 b0 18 1b 37
       4.559392e-06 1.7802377e-05 9.244468e-06 9.244468e-06
000050 92 09 ae 36 be 34 ac 36 98 5f 91 36 b4 8e 29 36
       5.186718e-06 5.1321394e-06 4.3324653e-06 2.5266027e-06
000060 b4 8e 29 36 75 bf 9f 32 9f 58 a0 32 b0 02 6c 34
       2.5266027e-06 1.85971e-08 1.8666752e-08 2.198019e-07
000070 8e fb 45 34 8e fb 45 34 ff 68 77 36 6e 05 6f 36
       1.843857e-07 1.843857e-07 3.6866984e-06 3.5616936e-06
000080 17 17 dc 36 14 04 75 36 14 04 75 36 e3 52 98 35
       6.559199e-06 3.6510219e-06 3.6510219e-06 1.1349006e-06
000090 a6 22 8e 35 61 fc e3 35 48 38 8c 35 48 38 8c 35
       1.0589908e-06 1.698627e-06 1.0447193e-06 1.0447193e-06
0000a0 6c e9 de 2f 00 00 00 00 6c e9 de 2f 3d ce 7a 30
       4.054742e-10 0.0 4.054742e-10 9.124255e-10
0000b0 3d ce 7a 30 b6 0c be 36 7b 53 9b 36 d3 49 9f 36
       9.124255e-10 5.663921e-06 4.6290784e-06 4.7471635e-06
0000c0 4a 44 46 36 4a 44 46 36 7f 6e fb 34 06 3b b9 34
       2.9544049e-06 2.9544049e-06 4.683279e-07 3.450188e-07
0000d0 1c a6 fd 34 de 30 a0 35 de 30 a0 35 00 00 00 00
       4.7245783e-07 1.1935151e-06 1.1935151e-06 0.0
0000e0 00 00 00 00 00 00 00 00 00 00 00 00 00 00 00 00
       0.0 0.0 0.0 0.0
0000f0 d0 a3 28 36 0d 99 0b 36 ed 8c 53 36 f5 ec fe 35
       2.5129302e-06 2.0801701e-06 3.152348e-06 1.8993438e-06
000100 f5 ec fe 35 62 22 38 37 d5 4b 2e 37 cd 2b e0 36
       1.8993438e-06 1.097526e-05 1.0388864e-05 6.6808193e-06
000110 de 9e 91 36 de 9e 91 36 00 00 00 00 00 00 00 00
       4.3398313e-06 4.3398313e-06 0.0 0.0
000120 00 00 00 00 00 00 00 00 00 00 00 00 3c 99 aa 35
       0.0 0.0 0.0 1.2710584e-06
000130 51 4a b1 35 fc 15 96 35 9a f0 b0 35 9a f0 b0 35
       1.3209157e-06 1.1182269e-06 1.3183046e-06 1.3183046e-06
000140 26 91 bf 36 cb 8b c2 36 cc ef dc 36 c0 c1 8d 36
       5.709141e-06 5.7979246e-06 6.584427e-06 4.224683e-06
000150 c0 c1 8d 36 3a b1 07 36 06 f7 eb 35 56 4a 2d 36
       4.224683e-06 2.0219727e-06 1.7580758e-06 2.5822278e-06
000160 14 ad ae 35 14 ad ae 35 18 ee fe 36 a4 4d da 36
       1.3014383e-06 1.3014383e-06 7.5975076e-06 6.505945e-06
000170 22 a1 fd 36 6b 92 98 36 6b 92 98 36 27 13 b8 36
       7.558746e-06 4.5469983e-06 4.5469983e-06 5.485857e-06
000180 40 de ba 36 0d fe 3a 36 1f 8d 4b 36 1f 8d 4b 36
       5.5691053e-06 2.7864037e-06 3.03315e-06 3.03315e-06
000190 6b 7c 63 36 d4 9b 32 36 49 08 8d 36 f3 4c 28 36
       3.3898057e-06 2.661477e-06 4.203092e-06 2.5078741e-06
0001a0 f3 4c 28 36 0d 06 4b 36 28 14 48 36 d5 82 4e 36
       2.5078741e-06 3.025288e-06 2.9814055e-06 3.0772546e-06
0001b0 4c 2f ce 35 4c 2f ce 35 c8 5b 85 36 5f f2 84 36
       1.5361961e-06 1.5361961e-06 3.9743936e-06 3.9621223e-06
0001c0 c7 82 1c 37 57 8f c6 36 57 8f c6 36 5f c8 ed 35
       9.328774e-06 5.917547e-06 5.917547e-06 1.7716192e-06
0001d0 44 c0 ff 35 fc 60 34 35 e6 d3 b9 35 e6 d3 b9 35
       1.9054937e-06 6.7196356e-07 1.3845245e-06 1.3845245e-06
0001e0 a4 1a 69 36 68 52 67 36 bd bf e5 36 e0 6b 87 36
       3.4735212e-06 3.446965e-06 6.847053e-06 4.035872e-06
0001f0 e0 6b 87 36 c3 8f 4c 36 52 35 53 36 c0 0f 75 35
       4.035872e-06 3.048205e-06 3.1472487e-06 9.129253e-07
000200 ee 44 f0 35 ee 44 f0 35 d4 5a a2 2e d4 5a a2 2e
       1.7901455e-06 1.7901455e-06 7.3830414e-11 7.3830414e-11
000210 00 00 00 00 ca 42 96 2e ca 42 96 2e 7e 05 07 37
       0.0 6.8330744e-11 6.8330744e-11 8.047906e-06
000220 ef 1e 04 37 fb 9c 24 37 19 40 f1 36 19 40 f1 36
       7.875015e-06 9.811712e-06 7.1898216e-06 7.1898216e-06
000230 6e bc 9d 36 01 90 8e 36 1e 78 e5 36 9f 0a 88 36
       4.7009007e-06 4.248694e-06 6.8387153e-06 4.0543523e-06
000240 9f 0a 88 36 bf 56 b1 36 f7 63 bd 36 b9 c8 e7 36
       4.0543523e-06 5.2851096e-06 5.6442764e-06 6.9077037e-06
000250 d4 b8 d2 36 d4 b8 d2 36
       6.2800045e-06 6.2800045e-06

exp_avg f4 [30]
000000 b8 1d d0 b8 c2 b6 06 ba 73 a6 83 3a ba 78 77 ba
       -9.9237484e-05 -0.00051389274 0.0010044113 -0.0009440292
000010 63 66 83 ba 27 b1 93 38 52 63 90 39 37 a5 ac b9
       -0.001002502 7.0425034e-05 0.0002753982 -0.0003292949
000020 04 00 00 00 4f 2d 55 ba 86 88 95 39 00 00 00 00
       6e-45 -0.00081320567 0.00028521213 0.0
000030 f0 36 6d b9 8c 55 a0 b9 00 00 00 00 08 a2 94 39
       -0.00022622547 -0.00030581316 0.0 0.00028349482
000040 98 41 46 38 8c c5 c4 39 98 47 36 ba e6 fb 53 ba
       4.7267968e-05 0.00037531217 -0.00069534173 -0.0008086547
000050 e6 88 ae b9 11 39 54 39 f4 42 f0 39 5b 8d 91 39
       -0.00033289863 0.00020239154 0.0004582625 0.00027761873
000060 88 18 ad 39 2e 28 2c ba 04 00 00 00 9c 2a c5 39
       0.0003301541 -0.00065672665 6e-45 0.00037606515
000070 55 d4 c6 b9 60 37 ae 39
       -0.00037923703 0.00033229124

exp_avg_sq f4 [30]
000000 52 96 66 36 03 4c a4 36 68 63 98 37 6f ba 2a 38
       3.4360169e-06 4.89643e-06 1.8166102e-05 4.070479e-05
000010 68 3c 03 37 0d 4d 23 35 67 09 1a 37 a7 8f 2c 36
       7.822273e-06 6.0834356e-07 9.181304e-06 2.5713614e-06
000020 0b 6b 92 30 66 e4 72 37 74 5b be 35 00 00 00 00
       1.0653322e-09 1.4477502e-05 1.418272e-06 0.0
000030 76 0c ed 36 c2 92 4f 37 00 00 00 00 dd 1a 5f 36
       7.064601e-06 1.2372331e-05 0.0 3.3245226e-06
000040 27 95 17 37 36 ef 9b 36 f6 d2 3a 37 47 af 1f 37
       9.035029e-06 4.647208e-06 1.1135582e-05 9.5179485e-06
000050 0b b2 19 37 a7 d3 9f 36 6c b1 78 37 b6 ba c8 36
       9.1609645e-06 4.763209e-06 1.4823261e-05 5.9822005e-06
000060 b3 f7 09 37 19 48 a9 36 d4 5a a2 2e 9b 7f be 37
       8.223508e-06 5.0449858e-06 7.3830414e-11 2.2709186e-05
000070 fb a3 26 37 9c c5 d1 37
       9.932551e-06 2.500676e-05

exp_avg f4 [3, 30]
000000 7e 10 7e b8 08 43 fd 3a 87 3e 3a 38 ec a6 ab b9
       -6.057368e-05 0.0019322345 4.440409e-05 -0.00032740028
000010 9b 6d dc 3a 51 47 5b 38 58 0a 15 3a dd 57 6c 3a
       0.0016817333 5.2280087e-05 0.000568544 0.0009015778
000020 04 00 00 80 f9 dd 51 3a 15 74 99 36 00 00 00 00
       -6e-45 0.0008005794 4.573269e-06 0.0
000030 9e 46 f6 b8 92 3a bd 39 00 00 00 00 bb 36 eb 3a
       -0.000117433476 0.00036092527 0.0 0.0017945388
000040 e2 8a ac 3a 6b a9 0f 3a 60 99 0e 3a bf 75 a8 3a
       0.0013163949 0.00054802623 0.0005439725 0.0012852474
000050 2e 23 72 39 69 02 42 3b bc 2d 5e b9 93 7a 4c 39
       0.00023092024 0.0029603487 -0.00021188607 0.00019500619
000060 e6 94 4e b9 47 1d 7b 3a 00 00 00 00 cb a0 9e 39
       -0.0001970116 0.0009579253 0.0 0.00030255908
000070 50 00 09 3a 4a 35 63 37 b3 b7 c1 b9 e0 79 d0 36
       0.0005226182 1.3542662e-05 -0.00036948695 6.213071e-06
000080 4c 21 dd b9 2a 66 9b b9 40 48 11 b7 00 ab 56 b6
       -0.00042177213 -0.00029640022 -8.6594955e-06 -3.198802e-06
000090 d4 9f 3e 38 78 6b 31 b9 04 00 00 00 da 13 64 b9
       4.544838e-05 -0.0001692007 6e-45 -0.0002175117
0000a0 a1 bd d3 b6 00 00 00 00 18 86 24 ba d3 12 96 38
       -6.3103657e-06 0.0 -0.0006276085 7.156064e-05
0000b0 00 00 00 00 0d d5 0d ba 26 3d 09 ba 91 f7 d1 39
       0.0 -0.000541047 -0.0005235247 0.00040048038
0000c0 ae 8a e3 39 82 b1 5b 38 2f f2 75 ba ae 64 4f b9
       0.00043400138 5.2378986e-05 -0.00093820965 -0.00019778564
0000d0 20 8f 25 b8 2e 3c dc b9 8c b5 54 39 5c 39 60 b8
       -3.947236e-05 -0.00042006507 0.00020285527 -5.345918e-05
0000e0 00 00 00 00 a8 d4 46 ba ce 9c 10 3a 18 c6 42 ba
       0.0 -0.0007584789 0.000551653 -0.0007430031
0000f0 b5 f1 8f b8 f9 57 bb 3a 7e b3 11 3a 36 ec 41 39
       -6.863793e-05 0.0014293186 0.00055580575 0.0001849391
000100 e8 58 64 3a ce b0 be 37 b7 38 23 3a 2a ed b1 38
       0.0008710758 2.2732096e-05 0.0006226408 8.484193e-05
000110 04 00 00 80 2c 57 fc 39 eb 96 01 b7 00 00 00 00
       -6e-45 0.00048130134 -7.7241375e-06 0.0
000120 d3 bb 0c 39 62 e0 6d 39 00 00 00 00 97 c2 c7 3a
       0.0001342141 0.0002268567 0.0 0.0015240487
000130 e4 e9 40 3a f6 06 27 3a 2c f0 c5 39 b4 cf 0e 3a
       0.0007359071 0.00063715817 0.0003775371 0.00054478203
000140 c0 08 35 37 70 55 ad 3a 56 42 90 36 d6 a9 91 39
       1.0790478e-05 0.0013224315 4.299257e-06 0.00027783093
000150 cc a9 d6 36 af bd 9b 39 04 00 00 00 40 0d 02 3a
       6.397464e-06 0.0002970523 6e-45 0.0004961081
000160 be 7b d5 39 dc 3b 32 3a
       0.0004071872 0.0006799081

exp_avg_sq f4 [3, 30]
000000 c1 ce 6a 37 f0 07 93 38 cf b5 d0 35 18 ee ce 37
       1.39956255e-05 7.010985e-05 1.5550121e-06 2.4667985e-05
000010 cb 6e 8f 38 1f 00 d9 35 2d b2 3d 38 98 d6 05 38
       6.839408e-05 1.6167795e-06 4.522705e-05 3.1909527e-05
000020 b8 9a 0f 2c bb 0a 62 37 77 bf dc 33 00 00 00 00
       2.0407408e-12 1.3473148e-05 1.02793756e-07 0.0
000030 17 e8 ad 37 fd 4b 88 37 00 00 00 00 cc 7b 4f 38
       2.0731282e-05 1.6247848e-05 0.0 4.946794e-05
000040 fb 1f 39 38 83 fa 3a 38 d9 30 c5 37 df b1 f5 37
       4.413722e-05 4.4579163e-05 2.3506977e-05 2.9289104e-05
000050 2e 00 12 37 15 cc a5 39 57 07 33 37 6c 80 09 36
       8.70232e-06 0.00031623305 1.067094e-05 2.0489342e-06
000060 02 64 3e 37 cb 7e 98 37 00 00 00 00 a7 6f fd 36
       1.1348167e-05 1.8178855e-05 0.0 7.5529856e-06
000070 3f 64 06 38 3d 39 a5 36 71 b2 e1 36 23 ff 3c 37
       3.204145e-05 4.9240466e-06 6.726296e-06 1.1265077e-05
000080 ac 8b fb 35 5d ce 20 37 9c b3 14 37 30 c0 61 35
       1.8741607e-06 9.584791e-06 8.863306e-06 8.40987e-07
000090 14 25 25 38 5d 13 a7 37 11 08 9e 2e d8 95 ee 36
       3.9373597e-05 1.9916968e-05 7.186441e-11 7.110397e-06
0000a0 6b 94 62 31 00 00 00 00 b3 a7 6f 37 a3 07 84 37
       3.2971694e-09 0.0 1.4284556e-05 1.5739182e-05
0000b0 00 00 00 00 d0 7f 82 37 e8 38 b7 37 c2 f0 09 38
       0.0 1.5556725e-05 2.1841799e-05 3.288757e-05
0000c0 a3 09 87 37 d6 f6 18 37 72 ad 68 37 eb db 98 38
       1.6097742e-05 9.117377e-06 1.3868661e-05 7.288888e-05
0000d0 10 69 20 36 ae a1 74 36 3f 3a f1 35 8c df 0e 37
       2.3903012e-06 3.6452943e-06 1.7972851e-06 8.515908e-06
0000e0 00 00 00 00 38 a0 3f 37 9f 00 a4 37 b9 93 37 37
       0.0 1.1421791e-05 1.9550613e-05 1.0942044e-05
0000f0 8d ee 1d 36 23 11 09 38 f6 d3 98 36 a9 19 b7 36
       2.3533678e-06 3.2679305e-05 4.5546285e-06 5.4568122e-06
000100 8e 27 a0 37 e0 9e 73 34 3e 4a 4c 36 1a ba 06 37
       1.9091905e-05 2.2688937e-07 3.0441583e-06 8.030353e-06
000110 86 f4 1e 2b 48 74 bd 36 4a de c2 31 00 00 00 00
       5.647222e-13 5.646176e-06 5.6714144e-09 0.0
000120 dc f1 2b 37 98 d8 10 36 00 00 00 00 ef 0c 35 38
       1.02487065e-05 2.1583746e-06 0.0 4.3165808e-05
000130 66 ba 05 38 ac 8f 9e 36 b8 f4 52 35 5f 25 fb 36
       3.1883268e-05 4.7254925e-06 7.858721e-07 7.4847335e-06
000140 67 16 17 37 88 ef f3 38 dc 8e d0 34 cf d2 5d 36
       9.005517e-06 0.00011631759 3.8846963e-07 3.3054273e-06
000150 96 46 dd 33 2e ce 98 36 7d 41 99 2d 92 e5 5c 37
       1.0303954e-07 4.5539555e-06 1.7423169e-11 1.3166473e-05
000160 6b b3 ce 35 5d 3f 94 37
       1.5400414e-06 1.767248e-05

exp_avg f4 [3]
000000 bd 23 80 3a 8a 20 ad ba 52 9f 70 3a
       0.0009776276 -0.001320855 0.0009179014

exp_avg_sq f4 [3]
000000 d8 91 b6 38 81 d8 79 38 b5 a1 77 38
       8.705602e-05 5.956786e-05 5.903999e-05
